…
W0727 19:05:46.235974 140279321745216 training_utils.py:1346] Output model missing from loss dictionary. We assume this was done on purpose. The fit and evaluate APIs will not be expecting any data to be passed to model.
(100, 64, 64, 1)
Model: "encoder"
__________________________________________________________________________________________________
Layer (type)                    Output Shape         Param #     Connected to                     
==================================================================================================
Field (InputLayer)              [(None, 64, 64, 1)]  0                                            
__________________________________________________________________________________________________
conv2d (Conv2D)                 (None, 64, 64, 512)  5120        Field[0][0]                      
__________________________________________________________________________________________________
conv2d_1 (Conv2D)               (None, 64, 64, 512)  1049088     conv2d[0][0]                     
__________________________________________________________________________________________________
conv2d_2 (Conv2D)               (None, 64, 64, 512)  262656      conv2d_1[0][0]                   
__________________________________________________________________________________________________
max_pooling2d (MaxPooling2D)    (None, 32, 32, 512)  0           conv2d_2[0][0]                   
__________________________________________________________________________________________________
conv2d_3 (Conv2D)               (None, 32, 32, 128)  589952      max_pooling2d[0][0]              
__________________________________________________________________________________________________
max_pooling2d_1 (MaxPooling2D)  (None, 16, 16, 128)  0           conv2d_3[0][0]                   
__________________________________________________________________________________________________
flatten (Flatten)               (None, 32768)        0           max_pooling2d_1[0][0]            
__________________________________________________________________________________________________
z_mean (Dense)                  (None, 512)          16777728    flatten[0][0]                    
__________________________________________________________________________________________________
z_log_var (Dense)               (None, 512)          16777728    flatten[0][0]                    
__________________________________________________________________________________________________
z (Lambda)                      (None, 512)          0           z_mean[0][0]                     
                                                                 z_log_var[0][0]                  
==================================================================================================
Total params: 35,462,272
Trainable params: 35,462,272
Non-trainable params: 0
__________________________________________________________________________________________________
Model: "model"
_________________________________________________________________
Layer (type)                 Output Shape              Param #   
=================================================================
z_sampling (InputLayer)      [(None, 512)]             0         
_________________________________________________________________
dense (Dense)                (None, 512)               262656    
_________________________________________________________________
reshape (Reshape)            (None, 16, 16, 2)         0         
_________________________________________________________________
conv2d_4 (Conv2D)            (None, 16, 16, 128)       2432      
_________________________________________________________________
up_sampling2d (UpSampling2D) (None, 32, 32, 128)       0         
_________________________________________________________________
conv2d_5 (Conv2D)            (None, 32, 32, 512)       66048     
_________________________________________________________________
conv2d_6 (Conv2D)            (None, 32, 32, 512)       1049088   
_________________________________________________________________
conv2d_7 (Conv2D)            (None, 32, 32, 512)       2359808   
_________________________________________________________________
up_sampling2d_1 (UpSampling2 (None, 64, 64, 512)       0         
_________________________________________________________________
conv2d_8 (Conv2D)            (None, 64, 64, 1)         4609      
=================================================================
Total params: 3,744,641
Trainable params: 3,744,641
Non-trainable params: 0
_________________________________________________________________
Model: "VAE"
__________________________________________________________________________________________________
Layer (type)                    Output Shape         Param #     Connected to                     
==================================================================================================
Field (InputLayer)              [(None, 64, 64, 1)]  0                                            
__________________________________________________________________________________________________
encoder (Model)                 [(None, 512), (None, 35462272    Field[0][0]                      
__________________________________________________________________________________________________
model (Model)                   (None, 64, 64, 1)    3744641     encoder[1][0]                    
                                                                 encoder[1][1]                    
                                                                 encoder[1][2]                    
__________________________________________________________________________________________________
conv2d (Conv2D)                 (None, 64, 64, 512)  5120        Field[0][0]                      
__________________________________________________________________________________________________
conv2d_1 (Conv2D)               (None, 64, 64, 512)  1049088     conv2d[0][0]                     
__________________________________________________________________________________________________
conv2d_2 (Conv2D)               (None, 64, 64, 512)  262656      conv2d_1[0][0]                   
__________________________________________________________________________________________________
max_pooling2d (MaxPooling2D)    (None, 32, 32, 512)  0           conv2d_2[0][0]                   
__________________________________________________________________________________________________
conv2d_3 (Conv2D)               (None, 32, 32, 128)  589952      max_pooling2d[0][0]              
__________________________________________________________________________________________________
max_pooling2d_1 (MaxPooling2D)  (None, 16, 16, 128)  0           conv2d_3[0][0]                   
__________________________________________________________________________________________________
flatten (Flatten)               (None, 32768)        0           max_pooling2d_1[0][0]            
__________________________________________________________________________________________________
z_log_var (Dense)               (None, 512)          16777728    flatten[0][0]                    
__________________________________________________________________________________________________
z_mean (Dense)                  (None, 512)          16777728    flatten[0][0]                    
__________________________________________________________________________________________________
tf_op_layer_add (TensorFlowOpLa [(None, 512)]        0           z_log_var[0][0]                  
__________________________________________________________________________________________________
tf_op_layer_Square_1 (TensorFlo [(None, 512)]        0           z_mean[0][0]                     
…
