…
2020-07-29 22:10:33.350223: I tensorflow/compiler/xla/service/service.cc:176]   StreamExecutor device (0): Tesla P100-PCIE-16GB, Compute Capability 6.0
(100, 64, 64, 1)
Model: "encoder"
__________________________________________________________________________________________________
Layer (type)                    Output Shape         Param #     Connected to                     
==================================================================================================
Field (InputLayer)              [(None, 64, 64, 1)]  0                                            
__________________________________________________________________________________________________
conv2d (Conv2D)                 (None, 64, 64, 128)  1280        Field[0][0]                      
__________________________________________________________________________________________________
conv2d_1 (Conv2D)               (None, 64, 64, 128)  65664       conv2d[0][0]                     
__________________________________________________________________________________________________
conv2d_2 (Conv2D)               (None, 64, 64, 128)  16512       conv2d_1[0][0]                   
__________________________________________________________________________________________________
max_pooling2d (MaxPooling2D)    (None, 32, 32, 128)  0           conv2d_2[0][0]                   
__________________________________________________________________________________________________
conv2d_3 (Conv2D)               (None, 32, 32, 64)   73792       max_pooling2d[0][0]              
__________________________________________________________________________________________________
max_pooling2d_1 (MaxPooling2D)  (None, 16, 16, 64)   0           conv2d_3[0][0]                   
__________________________________________________________________________________________________
flatten (Flatten)               (None, 16384)        0           max_pooling2d_1[0][0]            
__________________________________________________________________________________________________
z_mean (Dense)                  (None, 512)          8389120     flatten[0][0]                    
__________________________________________________________________________________________________
z_log_var (Dense)               (None, 512)          8389120     flatten[0][0]                    
__________________________________________________________________________________________________
z (Lambda)                      (None, 512)          0           z_mean[0][0]                     
                                                                 z_log_var[0][0]                  
==================================================================================================
Total params: 16,935,488
Trainable params: 16,935,488
Non-trainable params: 0
__________________________________________________________________________________________________
Model: "model"
_________________________________________________________________
Layer (type)                 Output Shape              Param #   
=================================================================
z_sampling (InputLayer)      [(None, 512)]             0         
_________________________________________________________________
dense (Dense)                (None, 512)               262656    
_________________________________________________________________
reshape (Reshape)            (None, 16, 16, 2)         0         
_________________________________________________________________
conv2d_4 (Conv2D)            (None, 16, 16, 64)        1216      
_________________________________________________________________
up_sampling2d (UpSampling2D) (None, 32, 32, 64)        0         
_________________________________________________________________
conv2d_5 (Conv2D)            (None, 32, 32, 128)       8320      
_________________________________________________________________
conv2d_6 (Conv2D)            (None, 32, 32, 128)       65664     
_________________________________________________________________
conv2d_7 (Conv2D)            (None, 32, 32, 128)       147584    
_________________________________________________________________
up_sampling2d_1 (UpSampling2 (None, 64, 64, 128)       0         
_________________________________________________________________
conv2d_8 (Conv2D)            (None, 64, 64, 1)         1153      
=================================================================
Total params: 486,593
Trainable params: 486,593
Non-trainable params: 0
_________________________________________________________________
Model: "VAE"
__________________________________________________________________________________________________
Layer (type)                    Output Shape         Param #     Connected to                     
==================================================================================================
Field (InputLayer)              [(None, 64, 64, 1)]  0                                            
__________________________________________________________________________________________________
encoder (Model)                 [(None, 512), (None, 16935488    Field[0][0]                      
__________________________________________________________________________________________________
model (Model)                   (None, 64, 64, 1)    486593      encoder[1][0]                    
                                                                 encoder[1][1]                    
                                                                 encoder[1][2]                    
__________________________________________________________________________________________________
conv2d (Conv2D)                 (None, 64, 64, 128)  1280        Field[0][0]                      
__________________________________________________________________________________________________
conv2d_1 (Conv2D)               (None, 64, 64, 128)  65664       conv2d[0][0]                     
__________________________________________________________________________________________________
conv2d_2 (Conv2D)               (None, 64, 64, 128)  16512       conv2d_1[0][0]                   
__________________________________________________________________________________________________
max_pooling2d (MaxPooling2D)    (None, 32, 32, 128)  0           conv2d_2[0][0]                   
__________________________________________________________________________________________________
conv2d_3 (Conv2D)               (None, 32, 32, 64)   73792       max_pooling2d[0][0]              
__________________________________________________________________________________________________
max_pooling2d_1 (MaxPooling2D)  (None, 16, 16, 64)   0           conv2d_3[0][0]                   
__________________________________________________________________________________________________
flatten (Flatten)               (None, 16384)        0           max_pooling2d_1[0][0]            
__________________________________________________________________________________________________
z_log_var (Dense)               (None, 512)          8389120     flatten[0][0]                    
__________________________________________________________________________________________________
z_mean (Dense)                  (None, 512)          8389120     flatten[0][0]                    
__________________________________________________________________________________________________
tf_op_layer_AddV2 (TensorFlowOp [(None, 512)]        0           z_log_var[0][0]                  
__________________________________________________________________________________________________
tf_op_layer_Square (TensorFlowO [(None, 512)]        0           z_mean[0][0]                     
…
