…
conv2d_6 (Conv2D)               (None, 128, 128, 128 802944      conv2d_5[0][0]                   
__________________________________________________________________________________________________
conv2d_7 (Conv2D)               (None, 128, 128, 128 802944      conv2d_6[0][0]                   
__________________________________________________________________________________________________
conv2d_8 (Conv2D)               (None, 128, 128, 128 802944      conv2d_7[0][0]                   
__________________________________________________________________________________________________
max_pooling2d (MaxPooling2D)    (None, 64, 64, 128)  0           conv2d_8[0][0]                   
__________________________________________________________________________________________________
conv2d_9 (Conv2D)               (None, 64, 64, 128)  802944      max_pooling2d[0][0]              
__________________________________________________________________________________________________
max_pooling2d_1 (MaxPooling2D)  (None, 32, 32, 128)  0           conv2d_9[0][0]                   
__________________________________________________________________________________________________
flatten (Flatten)               (None, 131072)       0           max_pooling2d_1[0][0]            
__________________________________________________________________________________________________
z_mean (Dense)                  (None, 512)          67109376    flatten[0][0]                    
__________________________________________________________________________________________________
z_log_var (Dense)               (None, 512)          67109376    flatten[0][0]                    
__________________________________________________________________________________________________
z (Lambda)                      (None, 512)          0           z_mean[0][0]                     
                                                                 z_log_var[0][0]                  
==================================================================================================
Total params: 140,252,032
Trainable params: 140,252,032
Non-trainable params: 0
__________________________________________________________________________________________________
Model: "model"
_________________________________________________________________
Layer (type)                 Output Shape              Param #   
=================================================================
z_sampling (InputLayer)      [(None, 512)]             0         
_________________________________________________________________
dense (Dense)                (None, 512)               262656    
_________________________________________________________________
reshape (Reshape)            (None, 16, 16, 2)         0         
_________________________________________________________________
conv2d_10 (Conv2D)           (None, 16, 16, 128)       2432      
_________________________________________________________________
up_sampling2d (UpSampling2D) (None, 32, 32, 128)       0         
_________________________________________________________________
conv2d_11 (Conv2D)           (None, 32, 32, 128)       802944    
_________________________________________________________________
up_sampling2d_1 (UpSampling2 (None, 64, 64, 128)       0         
_________________________________________________________________
conv2d_12 (Conv2D)           (None, 64, 64, 128)       802944    
_________________________________________________________________
conv2d_13 (Conv2D)           (None, 64, 64, 128)       802944    
_________________________________________________________________
conv2d_14 (Conv2D)           (None, 64, 64, 128)       802944    
_________________________________________________________________
conv2d_15 (Conv2D)           (None, 64, 64, 128)       409728    
_________________________________________________________________
conv2d_16 (Conv2D)           (None, 64, 64, 128)       409728    
_________________________________________________________________
conv2d_17 (Conv2D)           (None, 64, 64, 128)       409728    
_________________________________________________________________
conv2d_18 (Conv2D)           (None, 64, 64, 256)       295168    
_________________________________________________________________
conv2d_19 (Conv2D)           (None, 64, 64, 256)       590080    
_________________________________________________________________
conv2d_20 (Conv2D)           (None, 64, 64, 256)       590080    
_________________________________________________________________
up_sampling2d_2 (UpSampling2 (None, 128, 128, 256)     0         
_________________________________________________________________
conv2d_21 (Conv2D)           (None, 128, 128, 1)       2305      
=================================================================
Total params: 6,183,681
Trainable params: 6,183,681
Non-trainable params: 0
_________________________________________________________________
Model: "VAE"
__________________________________________________________________________________________________
Layer (type)                    Output Shape         Param #     Connected to                     
==================================================================================================
Field (InputLayer)              [(None, 128, 128, 1) 0                                            
__________________________________________________________________________________________________
encoder (Model)                 [(None, 512), (None, 140252032   Field[0][0]                      
__________________________________________________________________________________________________
model (Model)                   (None, 128, 128, 1)  6183681     encoder[1][0]                    
                                                                 encoder[1][1]                    
                                                                 encoder[1][2]                    2020-07-27 19:23:36.634896: I tensorflow/stream_executor/platform/default/dso_loader.cc:44] Successfully opened dynamic library libcublas.so.10.0
2020-07-27 19:23:36.867273: I tensorflow/stream_executor/platform/default/dso_loader.cc:44] Successfully opened dynamic library libcudnn.so.7
…
conv2d_6 (Conv2D)               (None, 128, 128, 128 802944      conv2d_5[0][0]                   
__________________________________________________________________________________________________
conv2d_7 (Conv2D)               (None, 128, 128, 128 802944      conv2d_6[0][0]                   
__________________________________________________________________________________________________
conv2d_8 (Conv2D)               (None, 128, 128, 128 802944      conv2d_7[0][0]                   
__________________________________________________________________________________________________
max_pooling2d (MaxPooling2D)    (None, 64, 64, 128)  0           conv2d_8[0][0]                   
__________________________________________________________________________________________________
conv2d_9 (Conv2D)               (None, 64, 64, 128)  802944      max_pooling2d[0][0]              
__________________________________________________________________________________________________
max_pooling2d_1 (MaxPooling2D)  (None, 32, 32, 128)  0           conv2d_9[0][0]                   
__________________________________________________________________________________________________
flatten (Flatten)               (None, 131072)       0           max_pooling2d_1[0][0]            
__________________________________________________________________________________________________
z_log_var (Dense)               (None, 512)          67109376    flatten[0][0]                    
__________________________________________________________________________________________________
z_mean (Dense)                  (None, 512)          67109376    flatten[0][0]                    
__________________________________________________________________________________________________
tf_op_layer_add (TensorFlowOpLa [(None, 512)]        0           z_log_var[0][0]                  
__________________________________________________________________________________________________
tf_op_layer_Square_1 (TensorFlo [(None, 512)]        0           z_mean[0][0]                     
…
