…
conv2d_6 (Conv2D)               (None, 128, 128, 128 147584      conv2d_5[0][0]                   
__________________________________________________________________________________________________
conv2d_7 (Conv2D)               (None, 128, 128, 128 147584      conv2d_6[0][0]                   
__________________________________________________________________________________________________
conv2d_8 (Conv2D)               (None, 128, 128, 128 147584      conv2d_7[0][0]                   
__________________________________________________________________________________________________
max_pooling2d (MaxPooling2D)    (None, 64, 64, 128)  0           conv2d_8[0][0]                   
__________________________________________________________________________________________________
conv2d_9 (Conv2D)               (None, 64, 64, 64)   73792       max_pooling2d[0][0]              
__________________________________________________________________________________________________
max_pooling2d_1 (MaxPooling2D)  (None, 32, 32, 64)   0           conv2d_9[0][0]                   
__________________________________________________________________________________________________
conv2d_10 (Conv2D)              (None, 32, 32, 64)   36928       max_pooling2d_1[0][0]            
__________________________________________________________________________________________________
max_pooling2d_2 (MaxPooling2D)  (None, 16, 16, 64)   0           conv2d_10[0][0]                  
__________________________________________________________________________________________________
flatten (Flatten)               (None, 16384)        0           max_pooling2d_2[0][0]            
__________________________________________________________________________________________________
z_mean (Dense)                  (None, 128)          2097280     flatten[0][0]                    
__________________________________________________________________________________________________
z_log_var (Dense)               (None, 128)          2097280     flatten[0][0]                    
__________________________________________________________________________________________________
z (Lambda)                      (None, 128)          0           z_mean[0][0]                     
                                                                 z_log_var[0][0]                  
==================================================================================================
Total params: 5,487,232
Trainable params: 5,487,232
Non-trainable params: 0
__________________________________________________________________________________________________
Model: "model"
_________________________________________________________________
Layer (type)                 Output Shape              Param #   
=================================================================
z_sampling (InputLayer)      [(None, 128)]             0         
_________________________________________________________________
dense (Dense)                (None, 512)               66048     
_________________________________________________________________
reshape (Reshape)            (None, 16, 16, 2)         0         
_________________________________________________________________
conv2d_11 (Conv2D)           (None, 16, 16, 64)        1216      
_________________________________________________________________
up_sampling2d (UpSampling2D) (None, 32, 32, 64)        0         
_________________________________________________________________
conv2d_12 (Conv2D)           (None, 32, 32, 128)       73856     
_________________________________________________________________
conv2d_13 (Conv2D)           (None, 32, 32, 128)       147584    
_________________________________________________________________
conv2d_14 (Conv2D)           (None, 32, 32, 128)       147584    
_________________________________________________________________
conv2d_15 (Conv2D)           (None, 32, 32, 128)       147584    
_________________________________________________________________
conv2d_16 (Conv2D)           (None, 32, 32, 128)       147584    
_________________________________________________________________
conv2d_17 (Conv2D)           (None, 32, 32, 128)       147584    
_________________________________________________________________
conv2d_18 (Conv2D)           (None, 32, 32, 128)       147584    
_________________________________________________________________
conv2d_19 (Conv2D)           (None, 32, 32, 128)       147584    
_________________________________________________________________
conv2d_20 (Conv2D)           (None, 32, 32, 128)       147584    
_________________________________________________________________
up_sampling2d_1 (UpSampling2 (None, 64, 64, 128)       0         
_________________________________________________________________
conv2d_21 (Conv2D)           (None, 64, 64, 128)       147584    
_________________________________________________________________
up_sampling2d_2 (UpSampling2 (None, 128, 128, 128)     0         
_________________________________________________________________
conv2d_22 (Conv2D)           (None, 128, 128, 1)       1153      
=================================================================
Total params: 1,470,529
Trainable params: 1,470,529
Non-trainable params: 0
_________________________________________________________________
Model: "VAE"
__________________________________________________________________________________________________
Layer (type)                    Output Shape         Param #     Connected to                     
==================================================================================================
Field (InputLayer)              [(None, 128, 128, 1) 0                                            
__________________________________________________________________________________________________
encoder (Model)                 [(None, 128), (None, 5487232     Field[0][0]                      
__________________________________________________________________________________________________
model (Model)                   (None, 128, 128, 1)  1470529     encoder[1][0]                    
                                                                 encoder[1][1]                    
                                                                 encoder[1][2]                    
__________________________________________________________________________________________________2020-08-01 18:28:59.729190: I tensorflow/stream_executor/platform/default/dso_loader.cc:44] Successfully opened dynamic library libcublas.so.10
…
conv2d_6 (Conv2D)               (None, 128, 128, 128 147584      conv2d_5[0][0]                   
__________________________________________________________________________________________________
conv2d_7 (Conv2D)               (None, 128, 128, 128 147584      conv2d_6[0][0]                   
__________________________________________________________________________________________________
conv2d_8 (Conv2D)               (None, 128, 128, 128 147584      conv2d_7[0][0]                   
__________________________________________________________________________________________________
max_pooling2d (MaxPooling2D)    (None, 64, 64, 128)  0           conv2d_8[0][0]                   
__________________________________________________________________________________________________
conv2d_9 (Conv2D)               (None, 64, 64, 64)   73792       max_pooling2d[0][0]              
__________________________________________________________________________________________________
max_pooling2d_1 (MaxPooling2D)  (None, 32, 32, 64)   0           conv2d_9[0][0]                   
__________________________________________________________________________________________________
conv2d_10 (Conv2D)              (None, 32, 32, 64)   36928       max_pooling2d_1[0][0]            
__________________________________________________________________________________________________
max_pooling2d_2 (MaxPooling2D)  (None, 16, 16, 64)   0           conv2d_10[0][0]                  
__________________________________________________________________________________________________
flatten (Flatten)               (None, 16384)        0           max_pooling2d_2[0][0]            
__________________________________________________________________________________________________
z_log_var (Dense)               (None, 128)          2097280     flatten[0][0]                    
__________________________________________________________________________________________________
z_mean (Dense)                  (None, 128)          2097280     flatten[0][0]                    
__________________________________________________________________________________________________
tf_op_layer_AddV2 (TensorFlowOp [(None, 128)]        0           z_log_var[0][0]                  
__________________________________________________________________________________________________
tf_op_layer_Square (TensorFlowO [(None, 128)]        0           z_mean[0][0]                     
…
